p5_params.npz (npz, 195690 bytes, 4 tensors)

f1.weight f8 [32, 784]
00000000: ccb8 d435 bded 4740 bed3 8ce3 2854 5440
00000010: 788f 6e7d 84f2 5640 30f3 bd22 d235 1a40
00000020: e83f d391 3807 3cc0 42c3 2c09 da4c 5240
00000030: 106c 3910 f914 4d40 3ac4 848c e1a4 5340
00000040: 50d0 4f10 a843 32c0 0845 5921 6df1 3cc0
00000050: 9ca6 edc1 ca63 4340 35e7 61f0 371f 56c0
00000060: d8a6 bd7e 71e9 3bc0 84e4 d1a7 08e0 5240
00000070: 8082 1c73 34e4 37c0 7560 8e58 880f 56c0
00000080: c858 71c3 4d65 56c0 806b ed3f 0f9a 30c0
00000090: e085 0174 85ec 3240 8091 0271 0fe6 0940
000000a0: 3ce7 16fd 6fa2 4140 f877 5303 3282 2fc0
000000b0: e0be e36b 22fa 4240 84c3 c8cc ccf2 56c0
000000c0: 32b6 c555 f108 4cc0 2807 632a 5ef2 2640
000000d0: 445e bf3b d903 3940 c682 62ba bcf5 5240
000000e0: 701b 1392 fc02 18c0 7165 6e60 d5ec 46c0
000000f0: aa1c 7161 1678 5340 80ba 9ff0 0f6f 3340
00000100: 6004 196a 2fa2 2040 90e2 13e8 b536 36c0
00000110: b434 b06a 412f 30c0 18ec dc05 a0a2 4040
00000120: 40ed a64d 8955 47c0 8c85 0322 05d2 3940
00000130: 882f 9e9e d3a7 5740 8457 3caf d7d7 41c0
00000140: 7125 47c5 eb99 58c0 9034 aa42 5ad6 1340
00000150: 22ec 3179 cccc 5040 0034 c273 d8ea 14c0
00000160: 89aa 1c05 10c8 47c0 0075 0b5c ce1a fabf
00000170: 5887 7f35 44a8 4140 c443 758b e728 35c0
00000180: c221 0b41 35a3 5540 6cf5 0d56 d928 4f40
00000190: 4e56 7cf7 10a3 49c0 d8d3 2dd3 b8f0 3640
000001a0: b7fa 53bf 3233 52c0 fd6e ef7f 6a91 4ec0
000001b0: c8e1 ba52 0ffc 3bc0 a0a6 22ff 2c2e 32c0
000001c0: 0a2a db23 f63c 56c0 90f5 24d2 0cc1 2d40
000001d0: 2fc6 5955 cc63 4dc0 ec4c 68b5 3eb7 53c0
000001e0: b067 6246 5c25 5440 94c5 c7d5 0897 4a40
000001f0: 4013 b152 8dd8 fbbf 0094 42ac bb0a cb3f
00000200: fd55 5ec9 d2c2 58c0 a51c 63f0 7c1f 53c0
00000210: 262b 5726 f672 4cc0 d229 dc75 8369 4dc0
00000220: b072 6d0f 40ef 24c0 5a85 3457 8aa8 5440
00000230: a83e 2530 8c9b 4d40 1cca 86e2 bcef 58c0
00000240: 5c90 0a0d 7186 4340 fc95 e118 79d3 29c0
00000250: b3ff 7ea4 4e58 2f40 ed0c 0dae 38fc 3ac0
00000260: 43b8 a79f 568b 4ac0 d607 8c37 7777 54c0
00000270: 5652 5d6e 85e1 5340 943c 2c54 8a1f 5540
00000280: 9834 7f61 24fc 4840 b565 9101 4b66 49c0
00000290: 6066 e879 a97f 28c0 32f1 7e8d 6291 52c0
000002a0: 0e91 1784 2c4f 5140 de66 4047 48e7 56c0
000002b0: d4e9 997b d812 56c0 7184 3a43 51c5 4cc0
000002c0: 30d1 c2d9 ebc3 25c0 df24 e7b6 3ab7 50c0
000002d0: 5853 0743 18bd 22c0 92dd a832 f3cf 5140
000002e0: 0a92 1f3f 9dfe 4340 1b36 d982 733f 5040
000002f0: 33b2 6ebd 9458 57c0 50e8 e8e6 dfb2 35c0
00000300: 140b d943 2556 3740 ea23 fbf8 66f3 53c0
00000310: 13b8 4835 1309 4840 380f 8758 418a 38c0
00000320: a63a b494 cb64 3fc0 1041 ccdb 91b8 58c0
00000330: 36da 97bb 1bc9 3a40 03ea ecbb 4013 3d40
00000340: 519e 9d0e ac36 30c0 f4ab 524f 180e 3440
00000350: 7fb0 7900 2dc4 55c0 a476 ac55 8853 5040
00000360: 18f1 599d de5c 3cc0 63e3 266d fd74 45c0
00000370: 61bc b3d3 4153 46c0 a028 944d c285 42c0
00000380: 3e93 2ce8 dafc 5440 506d 6cb4 97d5 2bc0
00000390: 847f 61be 8552 5340 3094 6a5e 5fb1 3c40
000003a0: 87cf 2b32 12ec 44c0 50a2 c207 10ec 4b40
000003b0: 3efa 873e 17c8 4ac0 af91 0285 8331 4ec0
000003c0: bbc7 17cf 953a 47c0 d323 70dd 009a 26c0
000003d0: 31fa 2252 24c3 36c0 0b6a 4ced 985e 4140
000003e0: 8fbd 54be 288f 06c0 a8c8 d2a2 2222 4b40
000003f0: 7dc7 658e 2c76 57c0 91c4 9d3c 722d 4ac0
00000400: 1a8d e84a 53f6 5440 ea0c 069a b508 54c0
00000410: d8a5 dc19 0159 33c0 b394 a8b2 0c48 44c0
00000420: 767a 6afa e710 4840 f235 d248 0b6b 50c0
00000430: dac1 83fb 28d1 5240 6c7e 0a5b f954 5340
00000440: d780 c272 f5dd 56c0 c818 f41a d965 53c0
00000450: 8005 5e9e 55dc 3940 388f 6e5f c1ba 4840
00000460: 79a9 13e2 a296 51c0 0469 02fb d25a 5540
00000470: 70b6 5a07 a3dc 50c0 a8cf 010c 8777 52c0
00000480: 5887 5f98 94f8 4140 5f1a 52d1 7ae6 42c0
00000490: 1358 5fc1 64b8 42c0 3f9e 7b56 8ef2 5540
000004a0: ba6c 1c26 9407 17c0 44c8 ed15 13cf 53c0
000004b0: 6449 d346 9b7e 10c0 158e e6da 53b8 58c0
000004c0: 5899 d82e f459 5840 f431 61eb 25f8 46c0
000004d0: f591 6e3f 0a56 67c0 f504 91ee e2d9 6fc0
000004e0: d4cd 29fe c5af 92c0 1da0 bbe6 3bee 96c0
000004f0: 42ec 9cc1 8ec9 50c0 d984 0ab4 e5fb 5840
00000500: b6ab 63f5 20f7 3740 fb10 6196 ec10 3740
00000510: 4d6b 2e2a e1f7 4740 322a 828e b9a0 5340
00000520: 4f67 88cd 94a0 5340 e1f1 0828 79c4 51c0
00000530: def3 cb60 ae8e 4cc0 a8c8 da98 38a3 23c0
00000540: 08c0 4fd8 bd67 4340 a7e5 1b55 5a90 4dc0
00000550: d4d8 b70d 6377 3cc0 301d c5e4 4acc 1a40
00000560: 5459 2d40 8a09 48c0 7e6e c94c e4df 47c0
00000570: aac3 c69f 97b1 3c40 bcd1 05bf c80e 11c0
00000580: 1e2d 5ae2 13a6 5340 af38 17a2 9978 4940
00000590: 8ba6 8972 8f88 4840 e1c9 05d8 02f1 33c0
000005a0: 58eb 6c0e adff 27c0 c648 9cb4 8387 58c0
000005b0: aa31 7d84 69be 61c0 95c7 bf52 43dd 72c0
000005c0: 4fdb d152 bb56 64c0 26db f02f 6226 78c0
000005d0: 459c 92ff 07e8 79c0 8f1d 23a6 cbc7 4c40
000005e0: f72a 6a56 d729 3dc0 e06c 926c e622 3a40
000005f0: f792 833a 3378 3cc0 dabd 6cd9 d729 1ac0
00000600: d7b7 6dc9 c78d 5740 435e 9277 d05d 48c0
00000610: 801b 382f 5860 fc3f aac5 3a1f 35ff 50c0
00000620: 528f a353 2597 58c0 582d ca77 e6be 4dc0
00000630: 0075 c157 12f6 40c0 ba6a ef9b 44ef 5040
00000640: c642 2f29 f2c8 5740 00f4 8fb1 f9de 4840
00000650: d5cb d304 15a0 3640 1c7e 8ad5 56f8 3240
00000660: 4d74 45c3 5460 1040 9186 7409 d74c 49c0
00000670: 854f 9868 b97d 4cc0 9a20 ff6b a2f9 91c0
00000680: b409 3d49 a33a 98c0 7c10 90bf 3a0a 9bc0
00000690: 809a 2e45 08ac 98c0 44c2 53c1 a044 99c0
000006a0: 86e3 7f3f a507 88c0 67df d1a0 dbf7 63c0
000006b0: 98d4 3ae0 e67f 83c0 204e be77 05cd 44c0
000006c0: aaeb 6487 4dae 4f40 1534 3d9d 14db 5140
000006d0: 05b0 4504 4cc9 4d40 0e52 ba6c ae36 1ec0
000006e0: ef3c d73a e491 3140 8666 55cd 0f74 58c0
000006f0: b830 a877 99c9 56c0 aa23 655c f8d4 5340
00000700: 10af cfc4 360e 1940 6c81 ad94 f353 3dc0
00000710: 9050 bb6b fa2b 31c0 6a48 427d cf85 50c0
00000720: c0b1 4275 c3da f1bf 842b 95b0 69aa 42c0
00000730: af14 f46a 3bcd 5440 3dfa b40c b7c3 45c0
00000740: 058d ee36 2feb 50c0 a062 0e73 1a6d 56c0
00000750: e6c3 b31b f5ff 4b40 1309 0c1c 3209 7fc0
00000760: 2820 14bf c660 8ec0 23b1 ac27 a28c 90c0
00000770: 88e2 811b dad8 8dc0 8d91 b6ba f2df 90c0
00000780: ce44 772b b5aa 7ec0 b287 d605 9049 85c0
00000790: 0b72 0bd7 36dc 70c0 96a6 93a8 c3d5 5040
000007a0: 39dd 1181 4369 5540 81d3 09c8 e519 50c0
000007b0: a92c c003 93d8 55c0 c0f4 fe66 48be 3a40
000007c0: 9468 d0b6 c08e 4b40 1259 1820 e3c1 5240
000007d0: 54e5 21fc 83cb 4540 5a29 ad16 df50 41c0
000007e0: 549a 6661 07a4 5240 e28f 562d b480 5040
000007f0: 58a1 b05f 453f 3240 c0aa dc48 6ca9 10c0
47.85733673941431 81.31499565842293 91.78933654591481 6.552559416621804 -28.02820693404638 73.20080785151825 58.163850811041016 78.57626641240577
-18.264283198819896 -28.9430714457458 38.77962516883892 -88.48778924523215 -27.91188804750604 75.50052829263046 -23.891425318203346 -88.24269689468368
-89.58287130421661 -16.60179519220719 18.923911333438696 3.2373341397198487 35.26904262178729 -15.754287818850557 37.954175459102544 -91.79374999624093
-56.06986496118442 11.473374676311849 25.01503346845699 75.83964404697608 -6.002916605392656 -45.850261739639684 77.8763660053834 19.433836974140377
8.316767993501514 -22.21371317372774 -16.184591930407535 33.27050851142138 -46.66825266504975 25.820390821323187 94.62229123542613 -35.686269669021414
-98.40501529643895 4.959328691137799 67.19998006701692 -5.229341324547022 -47.562988890645165 -1.631544456052609 35.31458157279002 -21.15978309262188
86.55012537085625 62.31913257295204 -51.273955283843506 22.940320204437597 -72.79997237397298 -61.13606261435596 -27.984608812928656 -18.180374093970954
-88.95252319720035 14.877050940524697 -58.77967326053146 -78.8632024305877 80.58375701532236 53.17995712522966 -1.740369151129201 0.21126504813324232
-99.04411539280404 -76.49200067213913 -56.89813689476277 -58.824324352742806 -10.46728561602626 82.63344364289279 59.21521570032684 -99.74590361750637
39.05032504096809 -12.913033273255671 15.672474995138918 -26.985239866434245 -53.088581044096394 -81.86665142702927 79.52376898873749 84.49281791992172
49.96986025534824 -50.799164005274555 -12.2493398758117 -74.27164018055626 69.23709204007557 -91.61378651894799 -88.29446306257825 -57.54154243809979
-10.882658772498502 -66.86295864651355 -9.369325728077158 71.24921862116597 39.98917378465201 64.99142523967787 -93.38407836733022 -21.698728973257232
23.336506119240838 -79.80315994763774 48.07089868593916 -24.54005959794378 -31.39373139762997 -98.88390250155157 26.78557941872915 29.075206513729437
-16.213562882882176 20.05505843895294 -87.06524669536337 65.30519620744832 -28.362771830042306 -42.91398395918693 -44.65044637943425 -37.04499215826331
83.95086101868671 -13.917173040614813 77.28941306611347 28.69286146261237 -41.84430529727165 55.84423920634856 -53.56320935859229 -60.386826158766205
-46.45769680653708 -11.300787849368055 -22.76227296213091 34.73904196005977 -2.819901930771898 54.26668200771502 -93.84646949710255 -52.35504872993
83.84883377752377 -80.13608408537735 -19.347673050278758 -40.56288750869262 48.132079412452114 -65.67256374863044 75.26812637202184 77.3277194597701
-91.46810597414456 -77.59137605512217 25.86068143649527 49.45902626894389 -70.35369159622304 85.41912722812054 -67.44745048388154 -73.86761760880347
35.94203476585852 -37.80062309750496 -37.44057480960341 87.78993761131368 -5.757401080593974 -79.23553989621092 -4.123639208455959 -98.88011810794008
97.40552874710318 -45.93865720983368 -186.6887509498189 -254.80895164798827 -1195.9433523685339 -1467.558497363708 -67.14933815311909 99.93589497592201
23.965346657594374 23.066110037515482 47.936558983483884 78.51132548056992 78.50908220596942 -71.06989479897994 -57.11469659765838 -9.818791176516541
38.81048110860871 -59.12775672781145 -28.46635518778278 6.699504446535954 -48.074531576293026 -47.74915466151741 28.69371985056538 -4.264437660913639
78.5949636345508 50.94218851217135 49.06687766762942 -19.941449643529157 -11.999367190166296 -98.11741366636406 -141.95038055850938 -301.8289363376037
-162.710366639973 -386.3989715012016 -414.5019527174921 57.56090237345335 -29.163442040367013 26.136328492878306 -28.469531685946063 -6.540862462293683
94.21531902041112 -48.732924410313466 1.7735215992449582 -67.98761730899301 -98.36165324185029 -59.491408323020266 -33.92243477769989 67.73856256847913
95.13978032698932 49.74199504403077 22.62532072230154 18.970074983894037 4.094073344339518 -50.600312406441965 -56.9822207206444 -1150.4086150993012
-1550.659459069936 -1730.5573713789045 -1579.0080764085578 -1617.1569874846764 -768.9556875220594 -159.74556008330111 -623.9877323719147 -41.601729362413835
63.36174099376451 71.42313319184207 59.572632345225465 -7.55339975249491 17.569888761089654 -97.81346448268786 -91.1499919073566 79.3276587474526
6.263880801368728 -29.327935497627024 -17.171789868575217 -66.09078914139687 -1.1159090595711945 -37.33135039600077 83.20675157390609 -43.52902373158256
-67.67475674911482 -89.70473934559641 55.99966760900115 -496.5747337789664 -972.0970441410363 -1059.1583544715038 -955.1064977786309 -1079.987040379175
-490.6692309054314 -681.1953236351167 -269.76338867636576 67.3400670473005 85.64474512810274 -64.40464974364842 -87.3839730622009 26.74329227184785
55.11525616813847 75.02948763253906 43.58996535925931 -34.631808123160866 74.56295046825227 66.01099713757824 18.2471523100115 -4.165452135532803

f1.bias f8 [32]
00000000: 0fbb c76d b8ac 5040 9595 7c80 1e97 58c0
00000010: ac60 1ff1 effa 56c0 4225 e7f6 5953 4640
00000020: 7c84 89ed 0cd5 5040 a0fc 09ea ec06 5240
00000030: c4fd a847 11b0 5040 8c26 3c27 38cf 48c0
00000040: 7b8f bfab dabb 2ec0 5b68 9b94 3967 37c0
00000050: a62b 30fa 5c91 4b40 90e3 c142 9ee3 2e40
00000060: fa4c 1ca0 291f 57c0 1a39 c58a 1a84 49c0
00000070: 8ff5 de1d 0143 5840 4413 029f ea1b 3ac0
00000080: bd10 8c2a 3aca 5ec2 0088 0ed9 10b3 3fc0
00000090: b99b f040 85f4 4ac0 2e2b 774c 812c 37c0
000000a0: b366 b240 7351 ebc0 d197 7e03 4582 52c0
000000b0: 35fc b59a 7a9c 5640 1bcd 86a2 a35c 2140
000000c0: 58e4 83e9 c811 5440 7517 4bac 034b 4940
000000d0: 636e 37bb c03a 20c0 04ca ed8b 049b 5640
000000e0: 1831 493d 3787 3940 f091 14f1 21db 2dc0
000000f0: c485 6692 0c93 1c40 62f7 718d 1234 2240
66.69875664238883 -98.3612366882938 -91.920894890444 44.65118299757388 67.32891405515142 72.10821009612346 66.75105468276075 -49.618901161547086
-15.366902701505515 -23.40322235864765 55.135649941941026 15.444566808860856 -92.48691561473598 -51.03205999975235 97.04694315694199 -26.109048784262328
-528967313968.26154 -31.699475828216237 -53.91031657932712 -23.173847941488184 -55947.601647568306 -74.03546225893594 90.44498317501059 8.680935934977745
80.2778877056129 50.58604959169944 -8.114751673237327 90.42215250226587 25.528186636323056 -14.927993329773898 7.143602645404318 9.101704044496447

f2.weight f8 [10, 32]
00000000: ebb9 59dc b20e 13c0 c7ed 7413 8b3c 51c0
00000010: 69c5 a759 b896 4d40 81e6 61ef 1249 a241
00000020: c75f fc98 35e2 e03f 1230 10cc da78 2840
00000030: d1ac 4293 eef0 57c0 79f7 c24e 7f8f 5640
00000040: d55c 1ce0 a3a9 30c0 99e3 0a36 af83 50c0
00000050: e257 9ac5 6fd0 f3bf 1cb5 d231 0e28 15c0
00000060: 1652 91d7 3e03 55c0 56c9 3d9c ab77 3240
00000070: 3f4f 5e20 7d0c 5240 cb1a 23cd e227 5640
00000080: 9731 273b 0e86 1040 fb80 ed27 c822 2d40
00000090: 8e31 5c1d 598a 50c0 ccd3 0062 3242 4ec0
000000a0: 54d6 9ed4 9d78 5740 6ca2 4270 92d1 5440
000000b0: 59dd dcaf a17f 4840 b09c 8788 f43d 2a40
000000c0: 6d9e 4303 dd45 47c0 5b28 e508 0cd4 cf41
000000d0: c81d a5c0 5690 2ac0 3d30 711c 8401 53c0
000000e0: aa6a 3d63 502e 4040 8c8f 322d 8cbd 51c0
000000f0: 4183 996a 1337 4ec0 3e26 bc03 43b9 51c0
00000100: 3549 7bbd 7598 46c0 babe 953c bb2d 5440
00000110: aaa6 1ea7 50b9 3240 a901 07bf 24a5 5640
00000120: 58bb 1e38 2fc7 4ac0 dd43 0678 8890 1840
00000130: 0234 2f53 bbbc 56c0 adc1 0841 944b 5740
00000140: 60d5 45f0 652a 3040 f413 25c0 dd3b 4fc0
00000150: 0088 5b9f 9ecc 44c0 3891 c8b3 0701 35c0
00000160: be8d 7949 3431 50c0 3fb3 85d8 4af3 1a40
00000170: 2e44 4f6b 95dc 52c0 7195 da4b 960d 4f40
00000180: de3b dcd7 9b5d 4840 f819 4069 9b83 54c0
00000190: ba28 9c31 c4ad 47c0 d154 fdfb 2c4a 6040
000001a0: 6609 449e 9e94 55c0 6911 ef5e 3f95 5840
000001b0: 6e56 c370 cd0c 41c0 7266 bfd6 3a2c 5540
000001c0: baba a533 0d1b 5640 f87d 8471 83a1 22c0
000001d0: 7e39 ca72 3f7a 50c0 3494 becb 3132 1c40
000001e0: dfd1 3aec a7d6 5740 4b16 b7ee 95a9 31c0
000001f0: 726b 8e4f 7603 2ac0 055c e9b6 d177 46c0
00000200: 4261 9755 2e45 3440 8032 507b 8efd 40c0
00000210: 19cc 7e37 d953 2740 e5b1 4fe9 b614 5540
00000220: 7549 7ceb c022 4fc0 ee6c 24e2 ffac 3b40
00000230: 707d fbb0 0888 1542 32a2 897c e056 5240
00000240: 31c9 1f10 8719 4540 beb7 51d1 4028 08c0
00000250: 2f74 1489 baeb 5440 2412 079c 78bc 40c0
00000260: 7326 56ae dd41 4cc0 ff22 99b7 4fd5 3fc0
00000270: 1a9f c467 30b0 05c2 9243 94b8 c417 54c0
00000280: d8cc 7569 e5ac 7c44 91cd 684d d0dc 47c0
00000290: 5dbc 3730 6874 2540 fe4a ece8 6fbb 60c0
000002a0: df9a d521 c7c5 08c3 6b2f 2b95 e2ad 56c0
000002b0: bb53 fe02 7c1a f7c1 6748 87e4 c08a 5740
000002c0: 7b9c f648 1ab1 1c41 0fe1 f50b 26d4 cfc1
000002d0: 5f86 edb6 7028 16c0 3ea7 2703 1029 5140
000002e0: f2d9 8527 ee1f 11c0 a774 0c29 81e1 4dc0
000002f0: b242 aa77 21e0 50c0 68b2 ee68 d924 3340
00000300: 175c 04aa ead1 b840 889a a311 9c37 4e40
00000310: 0dc3 6e4f e124 26c0 0a8b 4107 b1ba 56c0
00000320: 79d2 4717 6c0c 53c0 a803 2f38 d721 2240
00000330: 5757 857b 0c7f 58c0 2c6e 15a3 941e 3540
00000340: 5139 d980 dc24 4040 61bd d7c7 fb3e 51c0
00000350: 71c4 6ce7 eee6 4340 8c31 8626 2f51 1041
00000360: d637 1412 1330 56c0 5205 92a9 ca29 4ec0
00000370: 3740 f35b 1e06 5840 64f5 a9a1 32e9 4a40
00000380: 0e02 f39b d119 0341 2329 79e4 6523 23c1
00000390: 8672 36dd 0929 3940 fa77 8347 dab6 57c0
000003a0: ef2f 5fef 6ad2 7440 e4d5 00ed 3895 d6c0
000003b0: 4efb 7ae9 37e6 3340 d86e 0cfb 9fb8 00c0
000003c0: fc4b 9170 6016 32c0 1375 477a 65d0 4fc0
000003d0: ea58 7134 c9db 5340 0998 1b64 3f69 3140
000003e0: 2661 b980 b147 4440 d002 c5e0 8073 5440
000003f0: d6d6 782f be93 2ac0 4b2e 7f6e ada2 c240
00000400: e0b0 731e 1206 50c0 54c4 194c ce55 1342
00000410: 227f 867f 5059 07c0 4c87 157c 6861 3a40
00000420: f4eb 3eb4 6b56 33c0 f917 9a01 f9a5 52c0
00000430: ee23 1b87 8d07 4140 870f 41a4 f82c 2e40
00000440: 0a86 f1d1 1585 15c0 541e 4b92 af76 5140
00000450: ba20 3fad 28f9 5240 281e c074 35d0 05c2
00000460: 4e84 1434 9472 22c0 9061 632b 8813 49c0
00000470: fa02 6eaf c04d 3f40 c498 b146 6d35 36c0
00000480: 1fdb 8578 2325 06c2 ccbe c833 2429 76c0
00000490: 1cc6 f3d6 c503 41c0 c8a8 28de a216 41c0
000004a0: 6157 aec3 04dd a8c1 b481 11ce e0ef a4c0
000004b0: 6164 e22a 1a6e 4b40 a92e 7b91 2e07 3140
000004c0: 93f1 75c8 2643 56c0 d938 2a91 0c29 ca40
000004d0: 31c6 b900 c748 5440 d35c a433 a9e5 1f40
000004e0: 2842 c389 b1c6 4940 f2da 1d04 2ff4 4ac2
000004f0: dbfb dafd 64c3 01c2 5594 2826 09c4 c2c0
00000500: b353 3079 c9f6 3540 e412 9ab3 9e37 0341
00000510: 28b5 9c30 7f9d 5240 faf2 e440 e1cb 21c0
00000520: 96e7 5ff7 0830 4940 46ce 62f6 d806 2fc0
00000530: f051 95c6 1488 15c2 db91 0bdd ac40 45c0
00000540: 5c44 42f4 d545 3e40 83b4 0734 5e9e 4f40
00000550: fffa ecc0 470e 51c0 5013 c5cd 14d0 0542
00000560: dd80 d959 3106 4d40 aae4 1a21 56a4 3b40
00000570: cb1e 77c9 0ed4 4040 07cb 5858 bbae 4a40
00000580: 48eb 366d e5ac 7cc4 8a00 fefe 9526 2341
00000590: 2ec3 514a c482 56c0 4002 3c6a b7b4 57c0
000005a0: f6d4 3381 e6f5 f0c2 c905 2ab5 f84c 55c0
000005b0: f184 259d fb29 f5c1 123b 2af3 9da3 50c0
000005c0: c91a 1ea4 6fb6 5640 ddf8 5287 a878 3dc0
000005d0: 6afb 8155 9ad8 54c0 338c 0beb c8a2 4fc0
000005e0: 5af4 6206 234d 56c0 cddd 1f3a b3ab 2c41
000005f0: 0410 d272 a748 55c0 94fb b149 ea29 3140
00000600: d0e3 ccac d1ef 4540 ce2f 9ee8 d755 13c2
00000610: 22bb 6210 4823 0ec0 408d 8807 ef78 4a40
00000620: 8066 0c85 11c0 5240 b999 6ece c296 23c0
00000630: b4df 2a1b d054 4ec0 1370 16a8 3d4a 3840
00000640: 1c3e 2541 2096 5140 112f 83b5 d6af 31c0
00000650: 6a10 aab2 85fd b140 9d8f cb73 0d5a 3ac0
00000660: 5e33 31a4 16c2 2c40 2ddc 0d83 7cbc 4f40
00000670: 870a 32a4 a583 3a40 f6f6 3f3a 965c 4cc0
00000680: 3a54 667d 3c81 30c1 e6f0 0225 c343 4a40
00000690: f238 c3e9 3119 58c0 6a34 c021 c672 5740
000006a0: 1df5 88b5 04dd a841 a7ea 9bf0 8089 3540
000006b0: 0603 d53e 7e4a 56c0 acd2 299a 624e 3340
000006c0: 48de 23fe 864d 4440 81c0 495c 04b0 4340
000006d0: c8d2 6aa4 6d12 3040 0567 fcd5 6f9a 50c0
000006e0: ed32 f5cf a62e 3bc0 87f2 4dd9 27f4 4a42
000006f0: 18a9 fafb 64c3 0142 1cfa edf2 9276 4640
00000700: 20e8 e6d7 3793 4fc0 782d 0d26 ead9 4540
00000710: e321 420f bda3 45c0 633b 02d2 1349 a2c1
00000720: 8602 995b f3ce 44c0 36a9 0f32 dc59 4940
00000730: 80e6 6b21 4941 e2bf c486 9347 a625 4340
00000740: e57c a7e3 5c3c 37c0 90c8 4e77 9b5d 4140
00000750: 1808 0fbb de93 4bc0 1abc 2e25 f94d 54c0
00000760: 3f4d ebde f4d1 4840 a611 a0ad 9fe1 57c0
00000770: 3867 ec46 0fe3 4d40 ee2f 0b75 1625 11c0
00000780: d4ea dbb9 b8a0 5240 26fa 8652 d368 50c0
00000790: 02f8 95e4 c3c8 d63f 466b ae87 c4d8 58c0
000007a0: 491e 8413 2bdf 54c0 fdce 04d3 c41c d940
000007b0: 38e3 df00 2696 3240 3eae 9b5e 10a9 5040
000007c0: 1d77 bce8 d5a7 56c0 6834 9189 528d 29c0
000007d0: 1fd3 bbd4 0ced 5540 d699 f17c bbb3 37c0
000007e0: 5243 2de5 1c7c f23f 6c05 741c bb30 5140
000007f0: 9db8 af71 1da6 55c0 2c25 06f4 1ecc 5640
-4.764354174591499 -68.9459885255702 59.17750092212629 153389431.69121173 0.5276134479527109 12.236044289566085 -95.76456147681462 90.2421452430698
-16.662656790661305 -66.05756903708824 -1.2383878439773004 -5.2891166481834055 -84.0507105750224 18.467462315640056 72.1951371117584 88.62321785381498
4.130913662211603 14.567933318845908 -66.161689128907 -60.51716256180188 93.88463321219871 83.27456289775154 48.99712179455191 13.121006266168791
-46.545807273880975 1067980817.790294 -13.281911869197657 -76.02368842176016 32.361828236569025 -70.96168069779941 -60.430280041653994 -70.89471524595226
-45.19109314460585 80.71455301879442 18.723886914237177 90.5803678100989 -53.556128516202705 6.1411455873321446 -90.94893340692218 93.18092370848781
16.165617959069436 -62.46770479021498 -41.59859077424335 -21.004023777453057 -64.76881634588696 6.737590201530849 -75.44661982289173 62.10614917920146
48.73131845716101 -82.05636054286867 -47.35754985928493 130.31799125174305 -86.32218128818712 98.33199284883962 -34.10001954591722 84.69109123889373
88.42268077072632 -9.31545595877013 -65.91012258289808 7.049018081194891 95.35399919265863 -17.662444038104052 -13.006762014517992 -44.936087478585286
20.270238255937564 -33.98091069618113 11.663766607502156 84.32366402418809 -62.27151244705866 27.67577947034163 23119146046.872498 73.35745156708506
42.19943429519697 -3.019654879862144 83.68326022145696 -33.4724307093168 -56.514577667298816 -31.83324763764085 -11643784440.577686 -80.37138189772512
8.463477023403625e+21 -47.72510688416799 10.727357394031225 -133.8574108710381 -871607312233307.9 -90.71695450990016 -6201786415.895442 94.16802323542798
470086.57125324727 -1067994135.9209307 -5.539492471930855 68.64160231468574 -4.281181924385679 -59.76175416095912 -67.50204269053464 19.143942411685572
6353.9166567540005 60.4344503449293 -11.072031481047384 -90.91705495262809 -76.19409734739192 9.066095119227455 -97.98513687154387 21.119455521327993
32.28797922712932 -68.9841174704393 39.80416577158838 267339.78762128274 -88.75116397833276 -60.32649726514741 96.0956029773232 53.82185765074499
156474.20114709478 -627122.9462368827 25.16030676440507 -94.85707271422135 333.1511071890117 -23124.889465531232 19.89929064991457 -2.0901488888901945
-18.087409053299766 -63.62809685219886 79.43415556973528 17.411123520600118 40.56010445644124 81.8047410892425 -13.288560374737624 9541.35493459473
-64.09485589311544 20760990470.441727 -2.9186105692787274 26.380500560050947 -19.337580933915845 -74.59332313583572 34.059006584407925 15.087834484998679
-5.379966049543791 69.85446603141583 75.89310771145657 -11710934680.014725 -9.22378695249986 -50.15259306290238 31.303721393926914 -22.20869867168291
-11889045264.731993 -354.57133844772466 -34.02947508719464 -34.17684533105199 -208568929.8405104 -2679.9390721770123 54.86017356924345 17.028054325650974
-89.0492421294969 13394.09818008209 81.13714616910944 7.974278265864274 51.55229303392508 -231531743291.7105 -9536577467.372976 -9608.071477005413
21.964011740015575 157427.8376962162 74.46088805488091 -8.89820292277135 50.375273629978594 -15.513374042092561 -23119344037.330017 -42.505275374078074
30.272795931032633 63.237249854814785 -68.22312949316618 11710667192.63443 58.048381072237795 27.641939229074218 33.656701262630655 53.36509231887435
-8.463477089451213e+21 627530.9980316323 -90.04323060974704 -94.82369476185067 -298373124144463.4 -85.20267991164941 -5681166802.344956 -66.55651549457642
90.85056403102784 -29.471321542507997 -83.38441980069697 -63.27175653518534 -89.20526275313878 939481.6135243714 -85.13522024644777 17.163731199219527
43.87358627323522 -20761147943.546684 -3.767227294934302 52.94479459922377 75.00106931887603 -9.794455004693065 -60.662600894865506 24.29000330493734
70.34571865689253 -17.6868699498437 4605.522257451064 -26.351767766187198 14.379078989988269 63.472549802558525 26.514246237008162 -56.723334580643424
-1081660.4898426668 52.5293928398476 -96.39367145600025 93.79334300775523 208568922.76749507 21.53712371641691 -89.16395541002211 19.30619205018108
40.60568215133077 39.375133071910575 16.07198550804131 -66.41307592056917 -27.182232854235668 231530803867.89474 9536577407.332565 44.92635952587099
-63.15014170431846 43.70245814937056 -43.27920714120025 -153389545.00435933 -41.61680169078049 50.70203233494469 -0.5704694416774174 38.294136950525655
-23.235792377844422 34.73130694720123 -55.15523470148054 -81.21833161891882 49.64028536309569 -95.52537098533375 59.77390371840596 -4.286218479926886
74.51127478100108 -65.6378980939995 0.35600373576005506 -99.38699523957357 -83.48700416471651 25715.075379564416 18.586517386112263 66.64162411883532
-90.62243097691358 -12.776020335173783 87.70390814153915 -23.702079590782738 1.1553009941310006 68.76142035799211 -86.59554712448376 91.18938923454397

f2.bias f8 [10]
00000000: 8772 dac7 8e1e 45c0 cf58 8386 7ceb 55c0
00000010: 9df6 213b 9fab 3940 b73e 6887 5fdb 33c0
00000020: 5582 726b 0260 3640 457b 2fdd 1f3b 3ac0
00000030: ea31 4daf fce4 58c0 2491 2708 dcc5 50c0
00000040: 8015 945b 6657 30c0 00b6 dcb8 0fda 4b40
-42.238732320464855 -87.67947542979094 25.670398422042684 -19.856926405859408 22.375036921936346 -26.230954956142586 -99.57792265451977 -67.09155467857323
-16.34140560498554 55.70360480095769
